…
   "cell_type": "code",
   "execution_count": 10,
   "metadata": {},
   "outputs": [
    {
     "name": "stdout",
     "output_type": "stream",
     "text": [
      "##### Reshape and MinMaxScale input #####\n",
      "(529, 14, 24) (529, 7, 1) (59, 14, 24) (59, 7, 1)\n",
      "##### Model Development #####\n",
      "Model: \"sequential\"\n",
      "_________________________________________________________________\n",
      "Layer (type)                 Output Shape              Param #   \n",
      "=================================================================\n",
      "lstm (LSTM)                  (None, 14, 11)            1584      \n",
      "_________________________________________________________________\n",
      "dropout (Dropout)            (None, 14, 11)            0         \n",
      "_________________________________________________________________\n",
      "lstm_1 (LSTM)                (None, 11)                1012      \n",
      "_________________________________________________________________\n",
      "dropout_1 (Dropout)          (None, 11)                0         \n",
      "_________________________________________________________________\n",
      "dense (Dense)                (None, 11)                132       \n",
      "_________________________________________________________________\n",
      "dense_1 (Dense)              (None, 7)                 77        \n",
      "_________________________________________________________________\n",
      "reshape (Reshape)            (None, 7, 1)              0         \n",
      "=================================================================\n",
      "Total params: 2,805\n",
      "Trainable params: 2,805\n",
      "Non-trainable params: 0\n",
      "_________________________________________________________________\n",
      "Model: \"model\"\n",
      "__________________________________________________________________________________________________\n",
…
      "__________________________________________________________________________________________________\n",
      "lstm_2 (LSTM)                   [(None, 14, 11), (No 1584        input_2[0][0]                    \n",
      "__________________________________________________________________________________________________\n",
      "multi_head_attention (MultiHead ((None, 14, 11), (No 9223        lstm_2[0][0]                     \n",
      "                                                                 lstm_2[0][0]                     \n",
      "__________________________________________________________________________________________________\n",
      "lstm_3 (LSTM)                   (None, 11)           1012        multi_head_attention[0][0]       \n",
      "                                                                 lstm_2[0][1]                     \n",
      "                                                                 lstm_2[0][2]                     \n",
      "__________________________________________________________________________________________________\n",
      "dense_2 (Dense)                 (None, 11)           132         lstm_3[0][0]                     \n",
      "__________________________________________________________________________________________________\n",
      "dense_3 (Dense)                 (None, 7)            77          dense_2[0][0]                    \n",
      "__________________________________________________________________________________________________\n",
      "reshape_1 (Reshape)             (None, 7, 1)         0           dense_3[0][0]                    \n",
      "==================================================================================================\n",
      "Total params: 12,028\n",
      "Trainable params: 12,028\n",
      "Non-trainable params: 0\n",
      "__________________________________________________________________________________________________\n",
      "Model: \"sequential_1\"\n",
      "_________________________________________________________________\n",
      "Layer (type)                 Output Shape              Param #   \n",
      "=================================================================\n",
      "conv1d (Conv1D)              (None, 12, 32)            2336      \n",
      "_________________________________________________________________\n",
      "conv1d_1 (Conv1D)            (None, 10, 64)            6208      \n",
      "_________________________________________________________________\n",
      "max_pooling1d (MaxPooling1D) (None, 5, 64)             0         \n",
      "_________________________________________________________________\n",
      "lstm_4 (LSTM)                (None, 5, 28)             10416     \n",
      "_________________________________________________________________\n",
      "lstm_5 (LSTM)                (None, 14)                2408      \n",
      "_________________________________________________________________\n",
      "dense_4 (Dense)              (None, 14)                210       \n",
      "_________________________________________________________________\n",
      "dense_5 (Dense)              (None, 7)                 98        \n",
      "_________________________________________________________________\n",
      "reshape_2 (Reshape)          (None, 7, 1)              0         \n",
      "=================================================================\n",
      "Total params: 21,676\n",
      "Trainable params: 21,676\n",
      "Non-trainable params: 0\n",
      "_________________________________________________________________\n",
      "##### Results #####\n",
      "##### Logging the metadata #####\n",
      "INFO:tensorflow:Assets written to: C:\\Users\\wasin\\Downloads\\Work\\PG(HKU)\\FYP\\Program_Data\\Models\\20211018 00-05LSTM\\assets\n"
…
   "cell_type": "code",
   "execution_count": 11,
   "metadata": {},
   "outputs": [
    {
     "name": "stdout",
     "output_type": "stream",
     "text": [
      "##### Reshape and MinMaxScale input #####\n",
      "(529, 14, 26) (529, 7, 1) (59, 14, 26) (59, 7, 1)\n",
      "##### Model Development #####\n",
      "Model: \"sequential_2\"\n",
      "_________________________________________________________________\n",
      "Layer (type)                 Output Shape              Param #   \n",
      "=================================================================\n",
      "lstm_6 (LSTM)                (None, 14, 10)            1480      \n",
      "_________________________________________________________________\n",
      "dropout_2 (Dropout)          (None, 14, 10)            0         \n",
      "_________________________________________________________________\n",
      "lstm_7 (LSTM)                (None, 10)                840       \n",
      "_________________________________________________________________\n",
      "dropout_3 (Dropout)          (None, 10)                0         \n",
      "_________________________________________________________________\n",
      "dense_6 (Dense)              (None, 10)                110       \n",
      "_________________________________________________________________\n",
      "dense_7 (Dense)              (None, 7)                 70        \n",
      "_________________________________________________________________\n",
      "reshape_3 (Reshape)          (None, 7, 1)              0         \n",
      "=================================================================\n",
      "Total params: 2,500\n",
      "Trainable params: 2,500\n",
      "Non-trainable params: 0\n",
      "_________________________________________________________________\n",
      "Model: \"model_1\"\n",
      "__________________________________________________________________________________________________\n",
…
      "__________________________________________________________________________________________________\n",
      "lstm_8 (LSTM)                   [(None, 14, 10), (No 1480        input_4[0][0]                    \n",
      "__________________________________________________________________________________________________\n",
      "multi_head_attention_1 (MultiHe ((None, 14, 10), (No 8438        lstm_8[0][0]                     \n",
      "                                                                 lstm_8[0][0]                     \n",
      "__________________________________________________________________________________________________\n",
      "lstm_9 (LSTM)                   (None, 10)           840         multi_head_attention_1[0][0]     \n",
      "                                                                 lstm_8[0][1]                     \n",
      "                                                                 lstm_8[0][2]                     \n",
      "__________________________________________________________________________________________________\n",
      "dense_8 (Dense)                 (None, 10)           110         lstm_9[0][0]                     \n",
      "__________________________________________________________________________________________________\n",
      "dense_9 (Dense)                 (None, 7)            70          dense_8[0][0]                    \n",
      "__________________________________________________________________________________________________\n",
      "reshape_4 (Reshape)             (None, 7, 1)         0           dense_9[0][0]                    \n",
      "==================================================================================================\n",
      "Total params: 10,938\n",
      "Trainable params: 10,938\n",
      "Non-trainable params: 0\n",
      "__________________________________________________________________________________________________\n",
      "Model: \"sequential_3\"\n",
      "_________________________________________________________________\n",
      "Layer (type)                 Output Shape              Param #   \n",
      "=================================================================\n",
      "conv1d_2 (Conv1D)            (None, 12, 32)            2528      \n",
      "_________________________________________________________________\n",
      "conv1d_3 (Conv1D)            (None, 10, 64)            6208      \n",
      "_________________________________________________________________\n",
      "max_pooling1d_1 (MaxPooling1 (None, 5, 64)             0         \n",
      "_________________________________________________________________\n",
      "lstm_10 (LSTM)               (None, 5, 28)             10416     \n",
      "_________________________________________________________________\n",
      "lstm_11 (LSTM)               (None, 14)                2408      \n",
      "_________________________________________________________________\n",
      "dense_10 (Dense)             (None, 14)                210       \n",
      "_________________________________________________________________\n",
      "dense_11 (Dense)             (None, 7)                 98        \n",
      "_________________________________________________________________\n",
      "reshape_5 (Reshape)          (None, 7, 1)              0         \n",
      "=================================================================\n",
      "Total params: 21,868\n",
      "Trainable params: 21,868\n",
      "Non-trainable params: 0\n",
      "_________________________________________________________________\n",
      "##### Results #####\n",
      "##### Logging the metadata #####\n",
      "INFO:tensorflow:Assets written to: C:\\Users\\wasin\\Downloads\\Work\\PG(HKU)\\FYP\\Program_Data\\Models\\20211018 00-12LSTM\\assets\n"
…
   "cell_type": "code",
   "execution_count": 12,
   "metadata": {},
   "outputs": [
    {
     "name": "stdout",
     "output_type": "stream",
     "text": [
      "##### Reshape and MinMaxScale input #####\n",
      "(529, 14, 28) (529, 7, 1) (59, 14, 28) (59, 7, 1)\n",
      "##### Model Development #####\n",
      "Model: \"sequential_4\"\n",
      "_________________________________________________________________\n",
      "Layer (type)                 Output Shape              Param #   \n",
      "=================================================================\n",
      "lstm_12 (LSTM)               (None, 14, 9)             1368      \n",
      "_________________________________________________________________\n",
      "dropout_4 (Dropout)          (None, 14, 9)             0         \n",
      "_________________________________________________________________\n",
      "lstm_13 (LSTM)               (None, 9)                 684       \n",
      "_________________________________________________________________\n",
      "dropout_5 (Dropout)          (None, 9)                 0         \n",
      "_________________________________________________________________\n",
      "dense_12 (Dense)             (None, 9)                 90        \n",
      "_________________________________________________________________\n",
      "dense_13 (Dense)             (None, 7)                 63        \n",
      "_________________________________________________________________\n",
      "reshape_6 (Reshape)          (None, 7, 1)              0         \n",
      "=================================================================\n",
      "Total params: 2,205\n",
      "Trainable params: 2,205\n",
      "Non-trainable params: 0\n",
      "_________________________________________________________________\n",
      "Model: \"model_2\"\n",
      "__________________________________________________________________________________________________\n",
…
      "__________________________________________________________________________________________________\n",
      "lstm_14 (LSTM)                  [(None, 14, 9), (Non 1368        input_6[0][0]                    \n",
      "__________________________________________________________________________________________________\n",
      "multi_head_attention_2 (MultiHe ((None, 14, 9), (Non 7653        lstm_14[0][0]                    \n",
      "                                                                 lstm_14[0][0]                    \n",
      "__________________________________________________________________________________________________\n",
      "lstm_15 (LSTM)                  (None, 9)            684         multi_head_attention_2[0][0]     \n",
      "                                                                 lstm_14[0][1]                    \n",
      "                                                                 lstm_14[0][2]                    \n",
      "__________________________________________________________________________________________________\n",
      "dense_14 (Dense)                (None, 9)            90          lstm_15[0][0]                    \n",
      "__________________________________________________________________________________________________\n",
      "dense_15 (Dense)                (None, 7)            63          dense_14[0][0]                   \n",
      "__________________________________________________________________________________________________\n",
      "reshape_7 (Reshape)             (None, 7, 1)         0           dense_15[0][0]                   \n",
      "==================================================================================================\n",
      "Total params: 9,858\n",
      "Trainable params: 9,858\n",
      "Non-trainable params: 0\n",
      "__________________________________________________________________________________________________\n",
      "Model: \"sequential_5\"\n",
      "_________________________________________________________________\n",
      "Layer (type)                 Output Shape              Param #   \n",
      "=================================================================\n",
      "conv1d_4 (Conv1D)            (None, 12, 32)            2720      \n",
      "_________________________________________________________________\n",
      "conv1d_5 (Conv1D)            (None, 10, 64)            6208      \n",
      "_________________________________________________________________\n",
      "max_pooling1d_2 (MaxPooling1 (None, 5, 64)             0         \n",
      "_________________________________________________________________\n",
      "lstm_16 (LSTM)               (None, 5, 28)             10416     \n",
      "_________________________________________________________________\n",
      "lstm_17 (LSTM)               (None, 14)                2408      \n",
      "_________________________________________________________________\n",
      "dense_16 (Dense)             (None, 14)                210       \n",
      "_________________________________________________________________\n",
      "dense_17 (Dense)             (None, 7)                 98        \n",
      "_________________________________________________________________\n",
      "reshape_8 (Reshape)          (None, 7, 1)              0         \n",
      "=================================================================\n",
      "Total params: 22,060\n",
      "Trainable params: 22,060\n",
      "Non-trainable params: 0\n",
      "_________________________________________________________________\n",
      "##### Results #####\n",
      "##### Logging the metadata #####\n",
      "INFO:tensorflow:Assets written to: C:\\Users\\wasin\\Downloads\\Work\\PG(HKU)\\FYP\\Program_Data\\Models\\20211018 00-20LSTM\\assets\n"
…
    "x_train, x_test, y_train, y_test = data_handling(df, features)\n",
    "model_development(x_train, x_test, y_train, y_test, \"PCS\", country, modeldir, logdir, required_days, pred_days)"
   ]
  },
  {
   "cell_type": "code",
   "execution_count": 13,
   "metadata": {},
   "outputs": [
    {
     "name": "stdout",
     "output_type": "stream",
     "text": [
      "Model: \"sequential\"\n",
      "_________________________________________________________________\n",
      "Layer (type)                 Output Shape              Param #   \n",
      "=================================================================\n",
      "lstm (LSTM)                  (None, 14, 11)            1584      \n",
      "_________________________________________________________________\n",
      "dropout (Dropout)            (None, 14, 11)            0         \n",
      "_________________________________________________________________\n",
      "lstm_1 (LSTM)                (None, 11)                1012      \n",
      "_________________________________________________________________\n",
      "dropout_1 (Dropout)          (None, 11)                0         \n",
      "_________________________________________________________________\n",
      "dense (Dense)                (None, 11)                132       \n",
      "_________________________________________________________________\n",
      "dense_1 (Dense)              (None, 7)                 77        \n",
      "_________________________________________________________________\n",
      "reshape (Reshape)            (None, 7, 1)              0         \n",
      "=================================================================\n",
      "Total params: 2,805\n",
      "Trainable params: 2,805\n",
      "Non-trainable params: 0\n",
      "_________________________________________________________________\n",
      "##### Reshape and MinMaxScale input #####\n",
      "(529, 14, 24) (529, 7, 1) (59, 14, 24) (59, 7, 1)\n",
      "##### Reshape and MinMaxScale input #####\n",
      "(529, 14, 23) (529, 7, 1) (59, 14, 23) (59, 7, 1)\n",
      "Model: \"sequential_6\"\n",
      "_________________________________________________________________\n",
      "Layer (type)                 Output Shape              Param #   \n",
      "=================================================================\n",
      "lstm_18 (LSTM)               (None, 14, 11)            1540      \n",
      "_________________________________________________________________\n",
      "dropout_6 (Dropout)          (None, 14, 11)            0         \n",
      "_________________________________________________________________\n",
      "lstm_19 (LSTM)               (None, 11)                1012      \n",
      "_________________________________________________________________\n",
      "dropout_7 (Dropout)          (None, 11)                0         \n",
      "_________________________________________________________________\n",
      "dense_18 (Dense)             (None, 11)                132       \n",
      "_________________________________________________________________\n",
      "dense_19 (Dense)             (None, 7)                 77        \n",
      "_________________________________________________________________\n",
      "reshape_9 (Reshape)          (None, 7, 1)              0         \n",
      "=================================================================\n",
      "Total params: 2,761\n",
      "Trainable params: 2,761\n",
      "Non-trainable params: 0\n",
      "_________________________________________________________________\n",
      "###### V3_Vaccine Financial Support (summary) #####\n",
      "Changes in loss: -0.002038337290287018\n",
      "Changes in Validation loss: 1.1779367923736572e-05\n",
      "##### Reshape and MinMaxScale input #####\n",
      "(529, 14, 23) (529, 7, 1) (59, 14, 23) (59, 7, 1)\n",
      "Model: \"sequential_7\"\n",
      "_________________________________________________________________\n",
      "Layer (type)                 Output Shape              Param #   \n",
      "=================================================================\n",
      "lstm_20 (LSTM)               (None, 14, 11)            1540      \n",
      "_________________________________________________________________\n",
      "dropout_8 (Dropout)          (None, 14, 11)            0         \n",
      "_________________________________________________________________\n",
      "lstm_21 (LSTM)               (None, 11)                1012      \n",
      "_________________________________________________________________\n",
      "dropout_9 (Dropout)          (None, 11)                0         \n",
      "_________________________________________________________________\n",
      "dense_20 (Dense)             (None, 11)                132       \n",
      "_________________________________________________________________\n",
      "dense_21 (Dense)             (None, 7)                 77        \n",
      "_________________________________________________________________\n",
      "reshape_10 (Reshape)         (None, 7, 1)              0         \n",
      "=================================================================\n",
      "Total params: 2,761\n",
      "Trainable params: 2,761\n",
      "Non-trainable params: 0\n",
      "_________________________________________________________________\n",
      "###### V2_Vaccine Availability (summary) #####\n",
      "Changes in loss: -0.0038661975413560867\n",
      "Changes in Validation loss: 0.012378513813018799\n",
      "##### Reshape and MinMaxScale input #####\n",
      "(529, 14, 23) (529, 7, 1) (59, 14, 23) (59, 7, 1)\n",
      "Model: \"sequential_8\"\n",
      "_________________________________________________________________\n",
      "Layer (type)                 Output Shape              Param #   \n",
      "=================================================================\n",
      "lstm_22 (LSTM)               (None, 14, 11)            1540      \n",
      "_________________________________________________________________\n",
      "dropout_10 (Dropout)         (None, 14, 11)            0         \n",
      "_________________________________________________________________\n",
      "lstm_23 (LSTM)               (None, 11)                1012      \n",
      "_________________________________________________________________\n",
      "dropout_11 (Dropout)         (None, 11)                0         \n",
      "_________________________________________________________________\n",
      "dense_22 (Dense)             (None, 11)                132       \n",
      "_________________________________________________________________\n",
      "dense_23 (Dense)             (None, 7)                 77        \n",
      "_________________________________________________________________\n",
      "reshape_11 (Reshape)         (None, 7, 1)              0         \n",
      "=================================================================\n",
      "Total params: 2,761\n",
      "Trainable params: 2,761\n",
      "Non-trainable params: 0\n",
      "_________________________________________________________________\n",
      "###### V1_Vaccine Prioritisation (summary) #####\n",
      "Changes in loss: -0.0006992202252149582\n",
      "Changes in Validation loss: 0.0007493328303098679\n",
      "##### Reshape and MinMaxScale input #####\n",
      "(529, 14, 23) (529, 7, 1) (59, 14, 23) (59, 7, 1)\n",
      "Model: \"sequential_9\"\n",
      "_________________________________________________________________\n",
      "Layer (type)                 Output Shape              Param #   \n",
      "=================================================================\n",
      "lstm_24 (LSTM)               (None, 14, 11)            1540      \n",
      "_________________________________________________________________\n",
      "dropout_12 (Dropout)         (None, 14, 11)            0         \n",
      "_________________________________________________________________\n",
      "lstm_25 (LSTM)               (None, 11)                1012      \n",
      "_________________________________________________________________\n",
      "dropout_13 (Dropout)         (None, 11)                0         \n",
      "_________________________________________________________________\n",
      "dense_24 (Dense)             (None, 11)                132       \n",
      "_________________________________________________________________\n",
      "dense_25 (Dense)             (None, 7)                 77        \n",
      "_________________________________________________________________\n",
      "reshape_12 (Reshape)         (None, 7, 1)              0         \n",
      "=================================================================\n",
      "Total params: 2,761\n",
      "Trainable params: 2,761\n",
      "Non-trainable params: 0\n",
      "_________________________________________________________________\n",
      "###### H8_Protection of elderly people #####\n",
      "Changes in loss: -0.008896896615624428\n",
      "Changes in Validation loss: 0.012338083237409592\n",
      "##### Reshape and MinMaxScale input #####\n",
      "(529, 14, 23) (529, 7, 1) (59, 14, 23) (59, 7, 1)\n",
      "Model: \"sequential_10\"\n",
      "_________________________________________________________________\n",
      "Layer (type)                 Output Shape              Param #   \n",
      "=================================================================\n",
      "lstm_26 (LSTM)               (None, 14, 11)            1540      \n",
      "_________________________________________________________________\n",
      "dropout_14 (Dropout)         (None, 14, 11)            0         \n",
      "_________________________________________________________________\n",
      "lstm_27 (LSTM)               (None, 11)                1012      \n",
      "_________________________________________________________________\n",
      "dropout_15 (Dropout)         (None, 11)                0         \n",
      "_________________________________________________________________\n",
      "dense_26 (Dense)             (None, 11)                132       \n",
      "_________________________________________________________________\n",
      "dense_27 (Dense)             (None, 7)                 77        \n",
      "_________________________________________________________________\n",
      "reshape_13 (Reshape)         (None, 7, 1)              0         \n",
      "=================================================================\n",
      "Total params: 2,761\n",
      "Trainable params: 2,761\n",
      "Non-trainable params: 0\n",
      "_________________________________________________________________\n",
      "###### H7_Vaccination policy #####\n",
      "Changes in loss: -0.0013454444706439972\n",
      "Changes in Validation loss: -0.00044054165482521057\n",
      "##### Reshape and MinMaxScale input #####\n",
      "(529, 14, 23) (529, 7, 1) (59, 14, 23) (59, 7, 1)\n",
      "Model: \"sequential_11\"\n",
      "_________________________________________________________________\n",
      "Layer (type)                 Output Shape              Param #   \n",
      "=================================================================\n",
      "lstm_28 (LSTM)               (None, 14, 11)            1540      \n",
      "_________________________________________________________________\n",
      "dropout_16 (Dropout)         (None, 14, 11)            0         \n",
      "_________________________________________________________________\n",
      "lstm_29 (LSTM)               (None, 11)                1012      \n",
      "_________________________________________________________________\n",
      "dropout_17 (Dropout)         (None, 11)                0         \n",
      "_________________________________________________________________\n",
      "dense_28 (Dense)             (None, 11)                132       \n",
      "_________________________________________________________________\n",
      "dense_29 (Dense)             (None, 7)                 77        \n",
      "_________________________________________________________________\n",
      "reshape_14 (Reshape)         (None, 7, 1)              0         \n",
      "=================================================================\n",
      "Total params: 2,761\n",
      "Trainable params: 2,761\n",
      "Non-trainable params: 0\n",
      "_________________________________________________________________\n",
      "###### H6_Facial Coverings #####\n",
      "Changes in loss: -0.00620027631521225\n",
      "Changes in Validation loss: 0.016795337200164795\n",
      "##### Reshape and MinMaxScale input #####\n",
      "(529, 14, 23) (529, 7, 1) (59, 14, 23) (59, 7, 1)\n",
      "Model: \"sequential_12\"\n",
      "_________________________________________________________________\n",
      "Layer (type)                 Output Shape              Param #   \n",
      "=================================================================\n",
      "lstm_30 (LSTM)               (None, 14, 11)            1540      \n",
      "_________________________________________________________________\n",
      "dropout_18 (Dropout)         (None, 14, 11)            0         \n",
      "_________________________________________________________________\n",
      "lstm_31 (LSTM)               (None, 11)                1012      \n",
      "_________________________________________________________________\n",
      "dropout_19 (Dropout)         (None, 11)                0         \n",
      "_________________________________________________________________\n",
      "dense_30 (Dense)             (None, 11)                132       \n",
      "_________________________________________________________________\n",
      "dense_31 (Dense)             (None, 7)                 77        \n",
      "_________________________________________________________________\n",
      "reshape_15 (Reshape)         (None, 7, 1)              0         \n",
      "=================================================================\n",
      "Total params: 2,761\n",
      "Trainable params: 2,761\n",
      "Non-trainable params: 0\n",
      "_________________________________________________________________\n",
      "###### H5_Investment in vaccines #####\n",
      "Changes in loss: -0.002227671444416046\n",
      "Changes in Validation loss: 0.0037764403969049454\n",
      "##### Reshape and MinMaxScale input #####\n",
      "(529, 14, 23) (529, 7, 1) (59, 14, 23) (59, 7, 1)\n",
      "Model: \"sequential_13\"\n",
      "_________________________________________________________________\n",
      "Layer (type)                 Output Shape              Param #   \n",
      "=================================================================\n",
      "lstm_32 (LSTM)               (None, 14, 11)            1540      \n",
      "_________________________________________________________________\n",
      "dropout_20 (Dropout)         (None, 14, 11)            0         \n",
      "_________________________________________________________________\n",
      "lstm_33 (LSTM)               (None, 11)                1012      \n",
      "_________________________________________________________________\n",
      "dropout_21 (Dropout)         (None, 11)                0         \n",
      "_________________________________________________________________\n",
      "dense_32 (Dense)             (None, 11)                132       \n",
      "_________________________________________________________________\n",
      "dense_33 (Dense)             (None, 7)                 77        \n",
      "_________________________________________________________________\n",
      "reshape_16 (Reshape)         (None, 7, 1)              0         \n",
      "=================================================================\n",
      "Total params: 2,761\n",
      "Trainable params: 2,761\n",
      "Non-trainable params: 0\n",
      "_________________________________________________________________\n",
      "###### H4_Emergency investment in healthcare #####\n",
      "Changes in loss: -0.004870802164077759\n",
      "Changes in Validation loss: 0.015326034277677536\n",
      "##### Reshape and MinMaxScale input #####\n",
      "(529, 14, 23) (529, 7, 1) (59, 14, 23) (59, 7, 1)\n",
      "Model: \"sequential_14\"\n",
      "_________________________________________________________________\n",
      "Layer (type)                 Output Shape              Param #   \n",
      "=================================================================\n",
      "lstm_34 (LSTM)               (None, 14, 11)            1540      \n",
      "_________________________________________________________________\n",
      "dropout_22 (Dropout)         (None, 14, 11)            0         \n",
      "_________________________________________________________________\n",
      "lstm_35 (LSTM)               (None, 11)                1012      \n",
      "_________________________________________________________________\n",
      "dropout_23 (Dropout)         (None, 11)                0         \n",
      "_________________________________________________________________\n",
      "dense_34 (Dense)             (None, 11)                132       \n",
      "_________________________________________________________________\n",
      "dense_35 (Dense)             (None, 7)                 77        \n",
      "_________________________________________________________________\n",
      "reshape_17 (Reshape)         (None, 7, 1)              0         \n",
      "=================================================================\n",
      "Total params: 2,761\n",
      "Trainable params: 2,761\n",
      "Non-trainable params: 0\n",
      "_________________________________________________________________\n",
      "###### H3_Contact tracing #####\n",
      "Changes in loss: -0.00664115883409977\n",
      "Changes in Validation loss: 0.006799500435590744\n",
      "##### Reshape and MinMaxScale input #####\n",
      "(529, 14, 23) (529, 7, 1) (59, 14, 23) (59, 7, 1)\n",
      "Model: \"sequential_15\"\n",
      "_________________________________________________________________\n",
      "Layer (type)                 Output Shape              Param #   \n",
      "=================================================================\n",
      "lstm_36 (LSTM)               (None, 14, 11)            1540      \n",
      "_________________________________________________________________\n",
      "dropout_24 (Dropout)         (None, 14, 11)            0         \n",
      "_________________________________________________________________\n",
      "lstm_37 (LSTM)               (None, 11)                1012      \n",
      "_________________________________________________________________\n",
      "dropout_25 (Dropout)         (None, 11)                0         \n",
      "_________________________________________________________________\n",
      "dense_36 (Dense)             (None, 11)                132       \n",
      "_________________________________________________________________\n",
      "dense_37 (Dense)             (None, 7)                 77        \n",
      "_________________________________________________________________\n",
      "reshape_18 (Reshape)         (None, 7, 1)              0         \n",
      "=================================================================\n",
      "Total params: 2,761\n",
      "Trainable params: 2,761\n",
      "Non-trainable params: 0\n",
      "_________________________________________________________________\n",
      "###### H2_Testing policy #####\n",
      "Changes in loss: 0.005118986591696739\n",
      "Changes in Validation loss: -0.00020413100719451904\n",
      "##### Reshape and MinMaxScale input #####\n",
      "(529, 14, 23) (529, 7, 1) (59, 14, 23) (59, 7, 1)\n",
      "Model: \"sequential_16\"\n",
      "_________________________________________________________________\n",
      "Layer (type)                 Output Shape              Param #   \n",
      "=================================================================\n",
      "lstm_38 (LSTM)               (None, 14, 11)            1540      \n",
      "_________________________________________________________________\n",
      "dropout_26 (Dropout)         (None, 14, 11)            0         \n",
      "_________________________________________________________________\n",
      "lstm_39 (LSTM)               (None, 11)                1012      \n",
      "_________________________________________________________________\n",
      "dropout_27 (Dropout)         (None, 11)                0         \n",
      "_________________________________________________________________\n",
      "dense_38 (Dense)             (None, 11)                132       \n",
      "_________________________________________________________________\n",
      "dense_39 (Dense)             (None, 7)                 77        \n",
      "_________________________________________________________________\n",
      "reshape_19 (Reshape)         (None, 7, 1)              0         \n",
      "=================================================================\n",
      "Total params: 2,761\n",
      "Trainable params: 2,761\n",
      "Non-trainable params: 0\n",
      "_________________________________________________________________\n",
      "###### H1_Public information campaigns #####\n",
      "Changes in loss: -0.010688705369830132\n",
      "Changes in Validation loss: 0.016046755015850067\n",
      "##### Reshape and MinMaxScale input #####\n",
      "(529, 14, 23) (529, 7, 1) (59, 14, 23) (59, 7, 1)\n",
      "Model: \"sequential_17\"\n",
      "_________________________________________________________________\n",
      "Layer (type)                 Output Shape              Param #   \n",
      "=================================================================\n",
      "lstm_40 (LSTM)               (None, 14, 11)            1540      \n",
      "_________________________________________________________________\n",
      "dropout_28 (Dropout)         (None, 14, 11)            0         \n",
      "_________________________________________________________________\n",
      "lstm_41 (LSTM)               (None, 11)                1012      \n",
      "_________________________________________________________________\n",
      "dropout_29 (Dropout)         (None, 11)                0         \n",
      "_________________________________________________________________\n",
      "dense_40 (Dense)             (None, 11)                132       \n",
      "_________________________________________________________________\n",
      "dense_41 (Dense)             (None, 7)                 77        \n",
      "_________________________________________________________________\n",
      "reshape_20 (Reshape)         (None, 7, 1)              0         \n",
      "=================================================================\n",
      "Total params: 2,761\n",
      "Trainable params: 2,761\n",
      "Non-trainable params: 0\n",
      "_________________________________________________________________\n",
      "###### E4_International support #####\n",
      "Changes in loss: 0.0030746590346097946\n",
      "Changes in Validation loss: -0.0007631238549947739\n",
      "##### Reshape and MinMaxScale input #####\n",
      "(529, 14, 23) (529, 7, 1) (59, 14, 23) (59, 7, 1)\n",
      "Model: \"sequential_18\"\n",
      "_________________________________________________________________\n",
      "Layer (type)                 Output Shape              Param #   \n",
      "=================================================================\n",
      "lstm_42 (LSTM)               (None, 14, 11)            1540      \n",
      "_________________________________________________________________\n",
      "dropout_30 (Dropout)         (None, 14, 11)            0         \n",
      "_________________________________________________________________\n",
      "lstm_43 (LSTM)               (None, 11)                1012      \n",
      "_________________________________________________________________\n",
      "dropout_31 (Dropout)         (None, 11)                0         \n",
      "_________________________________________________________________\n",
      "dense_42 (Dense)             (None, 11)                132       \n",
      "_________________________________________________________________\n",
      "dense_43 (Dense)             (None, 7)                 77        \n",
      "_________________________________________________________________\n",
      "reshape_21 (Reshape)         (None, 7, 1)              0         \n",
      "=================================================================\n",
      "Total params: 2,761\n",
      "Trainable params: 2,761\n",
      "Non-trainable params: 0\n",
      "_________________________________________________________________\n",
      "###### E3_Fiscal measures #####\n",
      "Changes in loss: -0.011735208332538605\n",
      "Changes in Validation loss: 0.04150078445672989\n",
      "##### Reshape and MinMaxScale input #####\n",
      "(529, 14, 23) (529, 7, 1) (59, 14, 23) (59, 7, 1)\n",
      "Model: \"sequential_19\"\n",
      "_________________________________________________________________\n",
      "Layer (type)                 Output Shape              Param #   \n",
      "=================================================================\n",
      "lstm_44 (LSTM)               (None, 14, 11)            1540      \n",
      "_________________________________________________________________\n",
      "dropout_32 (Dropout)         (None, 14, 11)            0         \n",
      "_________________________________________________________________\n",
      "lstm_45 (LSTM)               (None, 11)                1012      \n",
      "_________________________________________________________________\n",
      "dropout_33 (Dropout)         (None, 11)                0         \n",
      "_________________________________________________________________\n",
      "dense_44 (Dense)             (None, 11)                132       \n",
      "_________________________________________________________________\n",
      "dense_45 (Dense)             (None, 7)                 77        \n",
      "_________________________________________________________________\n",
      "reshape_22 (Reshape)         (None, 7, 1)              0         \n",
      "=================================================================\n",
      "Total params: 2,761\n",
      "Trainable params: 2,761\n",
      "Non-trainable params: 0\n",
      "_________________________________________________________________\n",
      "###### E2_Debt/contract relief #####\n",
      "Changes in loss: 0.00038635358214378357\n",
      "Changes in Validation loss: 0.0017727352678775787\n",
      "##### Reshape and MinMaxScale input #####\n",
      "(529, 14, 23) (529, 7, 1) (59, 14, 23) (59, 7, 1)\n",
      "Model: \"sequential_20\"\n",
      "_________________________________________________________________\n",
      "Layer (type)                 Output Shape              Param #   \n",
      "=================================================================\n",
      "lstm_46 (LSTM)               (None, 14, 11)            1540      \n",
      "_________________________________________________________________\n",
      "dropout_34 (Dropout)         (None, 14, 11)            0         \n",
      "_________________________________________________________________\n",
      "lstm_47 (LSTM)               (None, 11)                1012      \n",
      "_________________________________________________________________\n",
      "dropout_35 (Dropout)         (None, 11)                0         \n",
      "_________________________________________________________________\n",
      "dense_46 (Dense)             (None, 11)                132       \n",
      "_________________________________________________________________\n",
      "dense_47 (Dense)             (None, 7)                 77        \n",
      "_________________________________________________________________\n",
      "reshape_23 (Reshape)         (None, 7, 1)              0         \n",
      "=================================================================\n",
      "Total params: 2,761\n",
      "Trainable params: 2,761\n",
      "Non-trainable params: 0\n",
      "_________________________________________________________________\n",
      "###### E1_Income support #####\n",
      "Changes in loss: -0.009295739233493805\n",
      "Changes in Validation loss: 0.016363754868507385\n",
      "##### Reshape and MinMaxScale input #####\n",
      "(529, 14, 23) (529, 7, 1) (59, 14, 23) (59, 7, 1)\n",
      "Model: \"sequential_21\"\n",
      "_________________________________________________________________\n",
      "Layer (type)                 Output Shape              Param #   \n",
      "=================================================================\n",
      "lstm_48 (LSTM)               (None, 14, 11)            1540      \n",
      "_________________________________________________________________\n",
      "dropout_36 (Dropout)         (None, 14, 11)            0         \n",
      "_________________________________________________________________\n",
      "lstm_49 (LSTM)               (None, 11)                1012      \n",
      "_________________________________________________________________\n",
      "dropout_37 (Dropout)         (None, 11)                0         \n",
      "_________________________________________________________________\n",
      "dense_48 (Dense)             (None, 11)                132       \n",
      "_________________________________________________________________\n",
      "dense_49 (Dense)             (None, 7)                 77        \n",
      "_________________________________________________________________\n",
      "reshape_24 (Reshape)         (None, 7, 1)              0         \n",
      "=================================================================\n",
      "Total params: 2,761\n",
      "Trainable params: 2,761\n",
      "Non-trainable params: 0\n",
      "_________________________________________________________________\n",
      "###### C8_International travel controls #####\n",
      "Changes in loss: -0.0046866219490766525\n",
      "Changes in Validation loss: -0.00011141225695610046\n",
      "##### Reshape and MinMaxScale input #####\n",
      "(529, 14, 23) (529, 7, 1) (59, 14, 23) (59, 7, 1)\n",
      "Model: \"sequential_22\"\n",
      "_________________________________________________________________\n",
      "Layer (type)                 Output Shape              Param #   \n",
      "=================================================================\n",
      "lstm_50 (LSTM)               (None, 14, 11)            1540      \n",
      "_________________________________________________________________\n",
      "dropout_38 (Dropout)         (None, 14, 11)            0         \n",
      "_________________________________________________________________\n",
      "lstm_51 (LSTM)               (None, 11)                1012      \n",
      "_________________________________________________________________\n",
      "dropout_39 (Dropout)         (None, 11)                0         \n",
      "_________________________________________________________________\n",
      "dense_50 (Dense)             (None, 11)                132       \n",
      "_________________________________________________________________\n",
      "dense_51 (Dense)             (None, 7)                 77        \n",
      "_________________________________________________________________\n",
      "reshape_25 (Reshape)         (None, 7, 1)              0         \n",
      "=================================================================\n",
      "Total params: 2,761\n",
      "Trainable params: 2,761\n",
      "Non-trainable params: 0\n",
      "_________________________________________________________________\n",
      "###### C7_Restrictions on internal movement #####\n",
      "Changes in loss: -4.488229751586914e-05\n",
      "Changes in Validation loss: 0.003408418968319893\n",
      "##### Reshape and MinMaxScale input #####\n",
      "(529, 14, 23) (529, 7, 1) (59, 14, 23) (59, 7, 1)\n",
      "Model: \"sequential_23\"\n",
      "_________________________________________________________________\n",
      "Layer (type)                 Output Shape              Param #   \n",
      "=================================================================\n",
      "lstm_52 (LSTM)               (None, 14, 11)            1540      \n",
      "_________________________________________________________________\n",
      "dropout_40 (Dropout)         (None, 14, 11)            0         \n",
      "_________________________________________________________________\n",
      "lstm_53 (LSTM)               (None, 11)                1012      \n",
      "_________________________________________________________________\n",
      "dropout_41 (Dropout)         (None, 11)                0         \n",
      "_________________________________________________________________\n",
      "dense_52 (Dense)             (None, 11)                132       \n",
      "_________________________________________________________________\n",
      "dense_53 (Dense)             (None, 7)                 77        \n",
      "_________________________________________________________________\n",
      "reshape_26 (Reshape)         (None, 7, 1)              0         \n",
      "=================================================================\n",
      "Total params: 2,761\n",
      "Trainable params: 2,761\n",
      "Non-trainable params: 0\n",
      "_________________________________________________________________\n",
      "###### C6_Stay at home requirements #####\n",
      "Changes in loss: -0.0009466800838708878\n",
      "Changes in Validation loss: 0.003610614687204361\n",
      "##### Reshape and MinMaxScale input #####\n",
      "(529, 14, 23) (529, 7, 1) (59, 14, 23) (59, 7, 1)\n",
      "Model: \"sequential_24\"\n",
      "_________________________________________________________________\n",
      "Layer (type)                 Output Shape              Param #   \n",
      "=================================================================\n",
      "lstm_54 (LSTM)               (None, 14, 11)            1540      \n",
      "_________________________________________________________________\n",
      "dropout_42 (Dropout)         (None, 14, 11)            0         \n",
      "_________________________________________________________________\n",
      "lstm_55 (LSTM)               (None, 11)                1012      \n",
      "_________________________________________________________________\n",
      "dropout_43 (Dropout)         (None, 11)                0         \n",
      "_________________________________________________________________\n",
      "dense_54 (Dense)             (None, 11)                132       \n",
      "_________________________________________________________________\n",
      "dense_55 (Dense)             (None, 7)                 77        \n",
      "_________________________________________________________________\n",
      "reshape_27 (Reshape)         (None, 7, 1)              0         \n",
      "=================================================================\n",
      "Total params: 2,761\n",
      "Trainable params: 2,761\n",
      "Non-trainable params: 0\n",
      "_________________________________________________________________\n",
      "###### C5_Close public transport #####\n",
      "Changes in loss: 0.0056168753653764725\n",
      "Changes in Validation loss: 0.00026739202439785004\n",
      "##### Reshape and MinMaxScale input #####\n",
      "(529, 14, 23) (529, 7, 1) (59, 14, 23) (59, 7, 1)\n",
      "Model: \"sequential_25\"\n",
      "_________________________________________________________________\n",
      "Layer (type)                 Output Shape              Param #   \n",
      "=================================================================\n",
      "lstm_56 (LSTM)               (None, 14, 11)            1540      \n",
      "_________________________________________________________________\n",
      "dropout_44 (Dropout)         (None, 14, 11)            0         \n",
      "_________________________________________________________________\n",
      "lstm_57 (LSTM)               (None, 11)                1012      \n",
      "_________________________________________________________________\n",
      "dropout_45 (Dropout)         (None, 11)                0         \n",
      "_________________________________________________________________\n",
      "dense_56 (Dense)             (None, 11)                132       \n",
      "_________________________________________________________________\n",
      "dense_57 (Dense)             (None, 7)                 77        \n",
      "_________________________________________________________________\n",
      "reshape_28 (Reshape)         (None, 7, 1)              0         \n",
      "=================================================================\n",
      "Total params: 2,761\n",
      "Trainable params: 2,761\n",
      "Non-trainable params: 0\n",
      "_________________________________________________________________\n",
      "###### C4_Restrictions on gatherings #####\n",
      "Changes in loss: -0.00331839919090271\n",
      "Changes in Validation loss: 0.004459438845515251\n",
      "##### Reshape and MinMaxScale input #####\n",
      "(529, 14, 23) (529, 7, 1) (59, 14, 23) (59, 7, 1)\n",
      "Model: \"sequential_26\"\n",
      "_________________________________________________________________\n",
      "Layer (type)                 Output Shape              Param #   \n",
      "=================================================================\n",
      "lstm_58 (LSTM)               (None, 14, 11)            1540      \n",
      "_________________________________________________________________\n",
      "dropout_46 (Dropout)         (None, 14, 11)            0         \n",
      "_________________________________________________________________\n",
      "lstm_59 (LSTM)               (None, 11)                1012      \n",
      "_________________________________________________________________\n",
      "dropout_47 (Dropout)         (None, 11)                0         \n",
      "_________________________________________________________________\n",
      "dense_58 (Dense)             (None, 11)                132       \n",
      "_________________________________________________________________\n",
      "dense_59 (Dense)             (None, 7)                 77        \n",
      "_________________________________________________________________\n",
      "reshape_29 (Reshape)         (None, 7, 1)              0         \n",
      "=================================================================\n",
      "Total params: 2,761\n",
      "Trainable params: 2,761\n",
      "Non-trainable params: 0\n",
      "_________________________________________________________________\n",
      "###### C3_Cancel public events #####\n",
      "Changes in loss: -0.010098075494170189\n",
      "Changes in Validation loss: 0.020572122186422348\n",
      "##### Reshape and MinMaxScale input #####\n",
      "(529, 14, 23) (529, 7, 1) (59, 14, 23) (59, 7, 1)\n",
      "Model: \"sequential_27\"\n",
      "_________________________________________________________________\n",
      "Layer (type)                 Output Shape              Param #   \n",
      "=================================================================\n",
      "lstm_60 (LSTM)               (None, 14, 11)            1540      \n",
      "_________________________________________________________________\n",
      "dropout_48 (Dropout)         (None, 14, 11)            0         \n",
      "_________________________________________________________________\n",
      "lstm_61 (LSTM)               (None, 11)                1012      \n",
      "_________________________________________________________________\n",
      "dropout_49 (Dropout)         (None, 11)                0         \n",
      "_________________________________________________________________\n",
      "dense_60 (Dense)             (None, 11)                132       \n",
      "_________________________________________________________________\n",
      "dense_61 (Dense)             (None, 7)                 77        \n",
      "_________________________________________________________________\n",
      "reshape_30 (Reshape)         (None, 7, 1)              0         \n",
      "=================================================================\n",
      "Total params: 2,761\n",
      "Trainable params: 2,761\n",
      "Non-trainable params: 0\n",
      "_________________________________________________________________\n",
      "###### C2_Workplace closing #####\n",
      "Changes in loss: -0.007717151194810867\n",
      "Changes in Validation loss: 0.01579246297478676\n",
      "##### Reshape and MinMaxScale input #####\n",
      "(529, 14, 23) (529, 7, 1) (59, 14, 23) (59, 7, 1)\n",
      "Model: \"sequential_28\"\n",
      "_________________________________________________________________\n",
      "Layer (type)                 Output Shape              Param #   \n",
      "=================================================================\n",
      "lstm_62 (LSTM)               (None, 14, 11)            1540      \n",
      "_________________________________________________________________\n",
      "dropout_50 (Dropout)         (None, 14, 11)            0         \n",
      "_________________________________________________________________\n",
      "lstm_63 (LSTM)               (None, 11)                1012      \n",
      "_________________________________________________________________\n",
      "dropout_51 (Dropout)         (None, 11)                0         \n",
      "_________________________________________________________________\n",
      "dense_62 (Dense)             (None, 11)                132       \n",
      "_________________________________________________________________\n",
      "dense_63 (Dense)             (None, 7)                 77        \n",
      "_________________________________________________________________\n",
      "reshape_31 (Reshape)         (None, 7, 1)              0         \n",
      "=================================================================\n",
      "Total params: 2,761\n",
      "Trainable params: 2,761\n",
      "Non-trainable params: 0\n",
      "_________________________________________________________________\n",
      "###### C1_School closing #####\n",
      "Changes in loss: -0.011580383405089378\n",
      "Changes in Validation loss: 0.006707632914185524\n"
…
