…
   "cell_type": "code",
   "execution_count": 10,
   "metadata": {},
   "outputs": [
    {
     "name": "stdout",
     "output_type": "stream",
     "text": [
      "##### Reshape and MinMaxScale input #####\n",
      "(541, 14, 24) (541, 7, 1) (61, 14, 24) (61, 7, 1)\n",
      "##### Model Development #####\n",
      "Model: \"sequential\"\n",
      "_________________________________________________________________\n",
      "Layer (type)                 Output Shape              Param #   \n",
      "=================================================================\n",
      "lstm (LSTM)                  (None, 14, 11)            1584      \n",
      "_________________________________________________________________\n",
      "dropout (Dropout)            (None, 14, 11)            0         \n",
      "_________________________________________________________________\n",
      "lstm_1 (LSTM)                (None, 11)                1012      \n",
      "_________________________________________________________________\n",
      "dropout_1 (Dropout)          (None, 11)                0         \n",
      "_________________________________________________________________\n",
      "dense (Dense)                (None, 11)                132       \n",
      "_________________________________________________________________\n",
      "dense_1 (Dense)              (None, 7)                 77        \n",
      "_________________________________________________________________\n",
      "reshape (Reshape)            (None, 7, 1)              0         \n",
      "=================================================================\n",
      "Total params: 2,805\n",
      "Trainable params: 2,805\n",
      "Non-trainable params: 0\n",
      "_________________________________________________________________\n",
      "Model: \"model\"\n",
      "__________________________________________________________________________________________________\n",
…
      "__________________________________________________________________________________________________\n",
      "lstm_2 (LSTM)                   [(None, 14, 11), (No 1584        input_2[0][0]                    \n",
      "__________________________________________________________________________________________________\n",
      "multi_head_attention (MultiHead ((None, 14, 11), (No 9223        lstm_2[0][0]                     \n",
      "                                                                 lstm_2[0][0]                     \n",
      "__________________________________________________________________________________________________\n",
      "lstm_3 (LSTM)                   (None, 11)           1012        multi_head_attention[0][0]       \n",
      "                                                                 lstm_2[0][1]                     \n",
      "                                                                 lstm_2[0][2]                     \n",
      "__________________________________________________________________________________________________\n",
      "dense_2 (Dense)                 (None, 11)           132         lstm_3[0][0]                     \n",
      "__________________________________________________________________________________________________\n",
      "dense_3 (Dense)                 (None, 7)            77          dense_2[0][0]                    \n",
      "__________________________________________________________________________________________________\n",
      "reshape_1 (Reshape)             (None, 7, 1)         0           dense_3[0][0]                    \n",
      "==================================================================================================\n",
      "Total params: 12,028\n",
      "Trainable params: 12,028\n",
      "Non-trainable params: 0\n",
      "__________________________________________________________________________________________________\n",
      "Model: \"sequential_1\"\n",
      "_________________________________________________________________\n",
      "Layer (type)                 Output Shape              Param #   \n",
      "=================================================================\n",
      "conv1d (Conv1D)              (None, 12, 32)            2336      \n",
      "_________________________________________________________________\n",
      "conv1d_1 (Conv1D)            (None, 10, 64)            6208      \n",
      "_________________________________________________________________\n",
      "max_pooling1d (MaxPooling1D) (None, 5, 64)             0         \n",
      "_________________________________________________________________\n",
      "lstm_4 (LSTM)                (None, 5, 28)             10416     \n",
      "_________________________________________________________________\n",
      "lstm_5 (LSTM)                (None, 14)                2408      \n",
      "_________________________________________________________________\n",
      "dense_4 (Dense)              (None, 14)                210       \n",
      "_________________________________________________________________\n",
      "dense_5 (Dense)              (None, 7)                 98        \n",
      "_________________________________________________________________\n",
      "reshape_2 (Reshape)          (None, 7, 1)              0         \n",
      "=================================================================\n",
      "Total params: 21,676\n",
      "Trainable params: 21,676\n",
      "Non-trainable params: 0\n",
      "_________________________________________________________________\n",
      "##### Results #####\n",
      "##### Logging the metadata #####\n",
      "INFO:tensorflow:Assets written to: C:\\Users\\wasin\\Downloads\\Work\\PG(HKU)\\FYP\\Program_Data\\Models\\20211017 20-45LSTM\\assets\n"
…
   "cell_type": "code",
   "execution_count": 11,
   "metadata": {},
   "outputs": [
    {
     "name": "stdout",
     "output_type": "stream",
     "text": [
      "##### Reshape and MinMaxScale input #####\n",
      "(541, 14, 26) (541, 7, 1) (61, 14, 26) (61, 7, 1)\n",
      "##### Model Development #####\n",
      "Model: \"sequential_2\"\n",
      "_________________________________________________________________\n",
      "Layer (type)                 Output Shape              Param #   \n",
      "=================================================================\n",
      "lstm_6 (LSTM)                (None, 14, 10)            1480      \n",
      "_________________________________________________________________\n",
      "dropout_2 (Dropout)          (None, 14, 10)            0         \n",
      "_________________________________________________________________\n",
      "lstm_7 (LSTM)                (None, 10)                840       \n",
      "_________________________________________________________________\n",
      "dropout_3 (Dropout)          (None, 10)                0         \n",
      "_________________________________________________________________\n",
      "dense_6 (Dense)              (None, 10)                110       \n",
      "_________________________________________________________________\n",
      "dense_7 (Dense)              (None, 7)                 70        \n",
      "_________________________________________________________________\n",
      "reshape_3 (Reshape)          (None, 7, 1)              0         \n",
      "=================================================================\n",
      "Total params: 2,500\n",
      "Trainable params: 2,500\n",
      "Non-trainable params: 0\n",
      "_________________________________________________________________\n",
      "Model: \"model_1\"\n",
      "__________________________________________________________________________________________________\n",
…
      "__________________________________________________________________________________________________\n",
      "lstm_8 (LSTM)                   [(None, 14, 10), (No 1480        input_4[0][0]                    \n",
      "__________________________________________________________________________________________________\n",
      "multi_head_attention_1 (MultiHe ((None, 14, 10), (No 8438        lstm_8[0][0]                     \n",
      "                                                                 lstm_8[0][0]                     \n",
      "__________________________________________________________________________________________________\n",
      "lstm_9 (LSTM)                   (None, 10)           840         multi_head_attention_1[0][0]     \n",
      "                                                                 lstm_8[0][1]                     \n",
      "                                                                 lstm_8[0][2]                     \n",
      "__________________________________________________________________________________________________\n",
      "dense_8 (Dense)                 (None, 10)           110         lstm_9[0][0]                     \n",
      "__________________________________________________________________________________________________\n",
      "dense_9 (Dense)                 (None, 7)            70          dense_8[0][0]                    \n",
      "__________________________________________________________________________________________________\n",
      "reshape_4 (Reshape)             (None, 7, 1)         0           dense_9[0][0]                    \n",
      "==================================================================================================\n",
      "Total params: 10,938\n",
      "Trainable params: 10,938\n",
      "Non-trainable params: 0\n",
      "__________________________________________________________________________________________________\n",
      "Model: \"sequential_3\"\n",
      "_________________________________________________________________\n",
      "Layer (type)                 Output Shape              Param #   \n",
      "=================================================================\n",
      "conv1d_2 (Conv1D)            (None, 12, 32)            2528      \n",
      "_________________________________________________________________\n",
      "conv1d_3 (Conv1D)            (None, 10, 64)            6208      \n",
      "_________________________________________________________________\n",
      "max_pooling1d_1 (MaxPooling1 (None, 5, 64)             0         \n",
      "_________________________________________________________________\n",
      "lstm_10 (LSTM)               (None, 5, 28)             10416     \n",
      "_________________________________________________________________\n",
      "lstm_11 (LSTM)               (None, 14)                2408      \n",
      "_________________________________________________________________\n",
      "dense_10 (Dense)             (None, 14)                210       \n",
      "_________________________________________________________________\n",
      "dense_11 (Dense)             (None, 7)                 98        \n",
      "_________________________________________________________________\n",
      "reshape_5 (Reshape)          (None, 7, 1)              0         \n",
      "=================================================================\n",
      "Total params: 21,868\n",
      "Trainable params: 21,868\n",
      "Non-trainable params: 0\n",
      "_________________________________________________________________\n",
      "##### Results #####\n",
      "##### Logging the metadata #####\n",
      "INFO:tensorflow:Assets written to: C:\\Users\\wasin\\Downloads\\Work\\PG(HKU)\\FYP\\Program_Data\\Models\\20211017 20-51LSTM\\assets\n"
…
   "cell_type": "code",
   "execution_count": 12,
   "metadata": {},
   "outputs": [
    {
     "name": "stdout",
     "output_type": "stream",
     "text": [
      "##### Reshape and MinMaxScale input #####\n",
      "(541, 14, 28) (541, 7, 1) (61, 14, 28) (61, 7, 1)\n",
      "##### Model Development #####\n",
      "Model: \"sequential_4\"\n",
      "_________________________________________________________________\n",
      "Layer (type)                 Output Shape              Param #   \n",
      "=================================================================\n",
      "lstm_12 (LSTM)               (None, 14, 9)             1368      \n",
      "_________________________________________________________________\n",
      "dropout_4 (Dropout)          (None, 14, 9)             0         \n",
      "_________________________________________________________________\n",
      "lstm_13 (LSTM)               (None, 9)                 684       \n",
      "_________________________________________________________________\n",
      "dropout_5 (Dropout)          (None, 9)                 0         \n",
      "_________________________________________________________________\n",
      "dense_12 (Dense)             (None, 9)                 90        \n",
      "_________________________________________________________________\n",
      "dense_13 (Dense)             (None, 7)                 63        \n",
      "_________________________________________________________________\n",
      "reshape_6 (Reshape)          (None, 7, 1)              0         \n",
      "=================================================================\n",
      "Total params: 2,205\n",
      "Trainable params: 2,205\n",
      "Non-trainable params: 0\n",
      "_________________________________________________________________\n",
      "Model: \"model_2\"\n",
      "__________________________________________________________________________________________________\n",
…
      "__________________________________________________________________________________________________\n",
      "lstm_14 (LSTM)                  [(None, 14, 9), (Non 1368        input_6[0][0]                    \n",
      "__________________________________________________________________________________________________\n",
      "multi_head_attention_2 (MultiHe ((None, 14, 9), (Non 7653        lstm_14[0][0]                    \n",
      "                                                                 lstm_14[0][0]                    \n",
      "__________________________________________________________________________________________________\n",
      "lstm_15 (LSTM)                  (None, 9)            684         multi_head_attention_2[0][0]     \n",
      "                                                                 lstm_14[0][1]                    \n",
      "                                                                 lstm_14[0][2]                    \n",
      "__________________________________________________________________________________________________\n",
      "dense_14 (Dense)                (None, 9)            90          lstm_15[0][0]                    \n",
      "__________________________________________________________________________________________________\n",
      "dense_15 (Dense)                (None, 7)            63          dense_14[0][0]                   \n",
      "__________________________________________________________________________________________________\n",
      "reshape_7 (Reshape)             (None, 7, 1)         0           dense_15[0][0]                   \n",
      "==================================================================================================\n",
      "Total params: 9,858\n",
      "Trainable params: 9,858\n",
      "Non-trainable params: 0\n",
      "__________________________________________________________________________________________________\n",
      "Model: \"sequential_5\"\n",
      "_________________________________________________________________\n",
      "Layer (type)                 Output Shape              Param #   \n",
      "=================================================================\n",
      "conv1d_4 (Conv1D)            (None, 12, 32)            2720      \n",
      "_________________________________________________________________\n",
      "conv1d_5 (Conv1D)            (None, 10, 64)            6208      \n",
      "_________________________________________________________________\n",
      "max_pooling1d_2 (MaxPooling1 (None, 5, 64)             0         \n",
      "_________________________________________________________________\n",
      "lstm_16 (LSTM)               (None, 5, 28)             10416     \n",
      "_________________________________________________________________\n",
      "lstm_17 (LSTM)               (None, 14)                2408      \n",
      "_________________________________________________________________\n",
      "dense_16 (Dense)             (None, 14)                210       \n",
      "_________________________________________________________________\n",
      "dense_17 (Dense)             (None, 7)                 98        \n",
      "_________________________________________________________________\n",
      "reshape_8 (Reshape)          (None, 7, 1)              0         \n",
      "=================================================================\n",
      "Total params: 22,060\n",
      "Trainable params: 22,060\n",
      "Non-trainable params: 0\n",
      "_________________________________________________________________\n",
      "##### Results #####\n",
      "##### Logging the metadata #####\n",
      "INFO:tensorflow:Assets written to: C:\\Users\\wasin\\Downloads\\Work\\PG(HKU)\\FYP\\Program_Data\\Models\\20211017 20-56LSTM\\assets\n"
…
    "x_train, x_test, y_train, y_test = data_handling(df, features)\n",
    "model_development(x_train, x_test, y_train, y_test, \"PCS\", country, modeldir, logdir, required_days, pred_days)"
   ]
  },
  {
   "cell_type": "code",
   "execution_count": 13,
   "metadata": {},
   "outputs": [
    {
     "name": "stdout",
     "output_type": "stream",
     "text": [
      "Model: \"sequential_3\"\n",
      "_________________________________________________________________\n",
      "Layer (type)                 Output Shape              Param #   \n",
      "=================================================================\n",
      "conv1d_2 (Conv1D)            (None, 12, 32)            2528      \n",
      "_________________________________________________________________\n",
      "conv1d_3 (Conv1D)            (None, 10, 64)            6208      \n",
      "_________________________________________________________________\n",
      "max_pooling1d_1 (MaxPooling1 (None, 5, 64)             0         \n",
      "_________________________________________________________________\n",
      "lstm_10 (LSTM)               (None, 5, 28)             10416     \n",
      "_________________________________________________________________\n",
      "lstm_11 (LSTM)               (None, 14)                2408      \n",
      "_________________________________________________________________\n",
      "dense_10 (Dense)             (None, 14)                210       \n",
      "_________________________________________________________________\n",
      "dense_11 (Dense)             (None, 7)                 98        \n",
      "_________________________________________________________________\n",
      "reshape_5 (Reshape)          (None, 7, 1)              0         \n",
      "=================================================================\n",
      "Total params: 21,868\n",
      "Trainable params: 21,868\n",
      "Non-trainable params: 0\n",
      "_________________________________________________________________\n",
      "##### Reshape and MinMaxScale input #####\n",
      "(541, 14, 26) (541, 7, 1) (61, 14, 26) (61, 7, 1)\n",
      "##### Reshape and MinMaxScale input #####\n",
      "(541, 14, 25) (541, 7, 1) (61, 14, 25) (61, 7, 1)\n",
      "Model: \"sequential_6\"\n",
      "_________________________________________________________________\n",
      "Layer (type)                 Output Shape              Param #   \n",
      "=================================================================\n",
      "conv1d_6 (Conv1D)            (None, 12, 32)            2432      \n",
      "_________________________________________________________________\n",
      "conv1d_7 (Conv1D)            (None, 10, 64)            6208      \n",
      "_________________________________________________________________\n",
      "max_pooling1d_3 (MaxPooling1 (None, 5, 64)             0         \n",
      "_________________________________________________________________\n",
      "lstm_18 (LSTM)               (None, 5, 28)             10416     \n",
      "_________________________________________________________________\n",
      "lstm_19 (LSTM)               (None, 14)                2408      \n",
      "_________________________________________________________________\n",
      "dense_18 (Dense)             (None, 14)                210       \n",
      "_________________________________________________________________\n",
      "dense_19 (Dense)             (None, 7)                 98        \n",
      "_________________________________________________________________\n",
      "reshape_9 (Reshape)          (None, 7, 1)              0         \n",
      "=================================================================\n",
      "Total params: 21,772\n",
      "Trainable params: 21,772\n",
      "Non-trainable params: 0\n",
      "_________________________________________________________________\n",
      "###### V3_Vaccine Financial Support (summary) #####\n",
      "Changes in loss: 0.0001125936396420002\n",
      "Changes in Validation loss: 0.05880731716752052\n",
      "##### Reshape and MinMaxScale input #####\n",
      "(541, 14, 25) (541, 7, 1) (61, 14, 25) (61, 7, 1)\n",
      "Model: \"sequential_7\"\n",
      "_________________________________________________________________\n",
      "Layer (type)                 Output Shape              Param #   \n",
      "=================================================================\n",
      "conv1d_8 (Conv1D)            (None, 12, 32)            2432      \n",
      "_________________________________________________________________\n",
      "conv1d_9 (Conv1D)            (None, 10, 64)            6208      \n",
      "_________________________________________________________________\n",
      "max_pooling1d_4 (MaxPooling1 (None, 5, 64)             0         \n",
      "_________________________________________________________________\n",
      "lstm_20 (LSTM)               (None, 5, 28)             10416     \n",
      "_________________________________________________________________\n",
      "lstm_21 (LSTM)               (None, 14)                2408      \n",
      "_________________________________________________________________\n",
      "dense_20 (Dense)             (None, 14)                210       \n",
      "_________________________________________________________________\n",
      "dense_21 (Dense)             (None, 7)                 98        \n",
      "_________________________________________________________________\n",
      "reshape_10 (Reshape)         (None, 7, 1)              0         \n",
      "=================================================================\n",
      "Total params: 21,772\n",
      "Trainable params: 21,772\n",
      "Non-trainable params: 0\n",
      "_________________________________________________________________\n",
      "###### V2_Vaccine Availability (summary) #####\n",
      "Changes in loss: 0.0002872468903660774\n",
      "Changes in Validation loss: 0.012958910316228867\n",
      "##### Reshape and MinMaxScale input #####\n",
      "(541, 14, 25) (541, 7, 1) (61, 14, 25) (61, 7, 1)\n",
      "Model: \"sequential_8\"\n",
      "_________________________________________________________________\n",
      "Layer (type)                 Output Shape              Param #   \n",
      "=================================================================\n",
      "conv1d_10 (Conv1D)           (None, 12, 32)            2432      \n",
      "_________________________________________________________________\n",
      "conv1d_11 (Conv1D)           (None, 10, 64)            6208      \n",
      "_________________________________________________________________\n",
      "max_pooling1d_5 (MaxPooling1 (None, 5, 64)             0         \n",
      "_________________________________________________________________\n",
      "lstm_22 (LSTM)               (None, 5, 28)             10416     \n",
      "_________________________________________________________________\n",
      "lstm_23 (LSTM)               (None, 14)                2408      \n",
      "_________________________________________________________________\n",
      "dense_22 (Dense)             (None, 14)                210       \n",
      "_________________________________________________________________\n",
      "dense_23 (Dense)             (None, 7)                 98        \n",
      "_________________________________________________________________\n",
      "reshape_11 (Reshape)         (None, 7, 1)              0         \n",
      "=================================================================\n",
      "Total params: 21,772\n",
      "Trainable params: 21,772\n",
      "Non-trainable params: 0\n",
      "_________________________________________________________________\n",
      "###### V1_Vaccine Prioritisation (summary) #####\n",
      "Changes in loss: 0.0006084339693188667\n",
      "Changes in Validation loss: 0.007822658866643906\n",
      "##### Reshape and MinMaxScale input #####\n",
      "(541, 14, 25) (541, 7, 1) (61, 14, 25) (61, 7, 1)\n",
      "Model: \"sequential_9\"\n",
      "_________________________________________________________________\n",
      "Layer (type)                 Output Shape              Param #   \n",
      "=================================================================\n",
      "conv1d_12 (Conv1D)           (None, 12, 32)            2432      \n",
      "_________________________________________________________________\n",
      "conv1d_13 (Conv1D)           (None, 10, 64)            6208      \n",
      "_________________________________________________________________\n",
      "max_pooling1d_6 (MaxPooling1 (None, 5, 64)             0         \n",
      "_________________________________________________________________\n",
      "lstm_24 (LSTM)               (None, 5, 28)             10416     \n",
      "_________________________________________________________________\n",
      "lstm_25 (LSTM)               (None, 14)                2408      \n",
      "_________________________________________________________________\n",
      "dense_24 (Dense)             (None, 14)                210       \n",
      "_________________________________________________________________\n",
      "dense_25 (Dense)             (None, 7)                 98        \n",
      "_________________________________________________________________\n",
      "reshape_12 (Reshape)         (None, 7, 1)              0         \n",
      "=================================================================\n",
      "Total params: 21,772\n",
      "Trainable params: 21,772\n",
      "Non-trainable params: 0\n",
      "_________________________________________________________________\n",
      "###### H8_Protection of elderly people #####\n",
      "Changes in loss: 9.31834802031517e-05\n",
      "Changes in Validation loss: 0.02141200378537178\n",
      "##### Reshape and MinMaxScale input #####\n",
      "(541, 14, 25) (541, 7, 1) (61, 14, 25) (61, 7, 1)\n",
      "Model: \"sequential_10\"\n",
      "_________________________________________________________________\n",
      "Layer (type)                 Output Shape              Param #   \n",
      "=================================================================\n",
      "conv1d_14 (Conv1D)           (None, 12, 32)            2432      \n",
      "_________________________________________________________________\n",
      "conv1d_15 (Conv1D)           (None, 10, 64)            6208      \n",
      "_________________________________________________________________\n",
      "max_pooling1d_7 (MaxPooling1 (None, 5, 64)             0         \n",
      "_________________________________________________________________\n",
      "lstm_26 (LSTM)               (None, 5, 28)             10416     \n",
      "_________________________________________________________________\n",
      "lstm_27 (LSTM)               (None, 14)                2408      \n",
      "_________________________________________________________________\n",
      "dense_26 (Dense)             (None, 14)                210       \n",
      "_________________________________________________________________\n",
      "dense_27 (Dense)             (None, 7)                 98        \n",
      "_________________________________________________________________\n",
      "reshape_13 (Reshape)         (None, 7, 1)              0         \n",
      "=================================================================\n",
      "Total params: 21,772\n",
      "Trainable params: 21,772\n",
      "Non-trainable params: 0\n",
      "_________________________________________________________________\n",
      "###### H7_Vaccination policy #####\n",
      "Changes in loss: 0.0007984745316207409\n",
      "Changes in Validation loss: 0.02363448217511177\n",
      "##### Reshape and MinMaxScale input #####\n",
      "(541, 14, 25) (541, 7, 1) (61, 14, 25) (61, 7, 1)\n",
      "Model: \"sequential_11\"\n",
      "_________________________________________________________________\n",
      "Layer (type)                 Output Shape              Param #   \n",
      "=================================================================\n",
      "conv1d_16 (Conv1D)           (None, 12, 32)            2432      \n",
      "_________________________________________________________________\n",
      "conv1d_17 (Conv1D)           (None, 10, 64)            6208      \n",
      "_________________________________________________________________\n",
      "max_pooling1d_8 (MaxPooling1 (None, 5, 64)             0         \n",
      "_________________________________________________________________\n",
      "lstm_28 (LSTM)               (None, 5, 28)             10416     \n",
      "_________________________________________________________________\n",
      "lstm_29 (LSTM)               (None, 14)                2408      \n",
      "_________________________________________________________________\n",
      "dense_28 (Dense)             (None, 14)                210       \n",
      "_________________________________________________________________\n",
      "dense_29 (Dense)             (None, 7)                 98        \n",
      "_________________________________________________________________\n",
      "reshape_14 (Reshape)         (None, 7, 1)              0         \n",
      "=================================================================\n",
      "Total params: 21,772\n",
      "Trainable params: 21,772\n",
      "Non-trainable params: 0\n",
      "_________________________________________________________________\n",
      "###### H6_Facial Coverings #####\n",
      "Changes in loss: 0.034598078578710556\n",
      "Changes in Validation loss: 0.1991838663816452\n",
      "##### Reshape and MinMaxScale input #####\n",
      "(541, 14, 25) (541, 7, 1) (61, 14, 25) (61, 7, 1)\n",
      "Model: \"sequential_12\"\n",
      "_________________________________________________________________\n",
      "Layer (type)                 Output Shape              Param #   \n",
      "=================================================================\n",
      "conv1d_18 (Conv1D)           (None, 12, 32)            2432      \n",
      "_________________________________________________________________\n",
      "conv1d_19 (Conv1D)           (None, 10, 64)            6208      \n",
      "_________________________________________________________________\n",
      "max_pooling1d_9 (MaxPooling1 (None, 5, 64)             0         \n",
      "_________________________________________________________________\n",
      "lstm_30 (LSTM)               (None, 5, 28)             10416     \n",
      "_________________________________________________________________\n",
      "lstm_31 (LSTM)               (None, 14)                2408      \n",
      "_________________________________________________________________\n",
      "dense_30 (Dense)             (None, 14)                210       \n",
      "_________________________________________________________________\n",
      "dense_31 (Dense)             (None, 7)                 98        \n",
      "_________________________________________________________________\n",
      "reshape_15 (Reshape)         (None, 7, 1)              0         \n",
      "=================================================================\n",
      "Total params: 21,772\n",
      "Trainable params: 21,772\n",
      "Non-trainable params: 0\n",
      "_________________________________________________________________\n",
      "###### H5_Investment in vaccines #####\n",
      "Changes in loss: 0.00025563081726431847\n",
      "Changes in Validation loss: 0.04306292161345482\n",
      "##### Reshape and MinMaxScale input #####\n",
      "(541, 14, 25) (541, 7, 1) (61, 14, 25) (61, 7, 1)\n",
      "Model: \"sequential_13\"\n",
      "_________________________________________________________________\n",
      "Layer (type)                 Output Shape              Param #   \n",
      "=================================================================\n",
      "conv1d_20 (Conv1D)           (None, 12, 32)            2432      \n",
      "_________________________________________________________________\n",
      "conv1d_21 (Conv1D)           (None, 10, 64)            6208      \n",
      "_________________________________________________________________\n",
      "max_pooling1d_10 (MaxPooling (None, 5, 64)             0         \n",
      "_________________________________________________________________\n",
      "lstm_32 (LSTM)               (None, 5, 28)             10416     \n",
      "_________________________________________________________________\n",
      "lstm_33 (LSTM)               (None, 14)                2408      \n",
      "_________________________________________________________________\n",
      "dense_32 (Dense)             (None, 14)                210       \n",
      "_________________________________________________________________\n",
      "dense_33 (Dense)             (None, 7)                 98        \n",
      "_________________________________________________________________\n",
      "reshape_16 (Reshape)         (None, 7, 1)              0         \n",
      "=================================================================\n",
      "Total params: 21,772\n",
      "Trainable params: 21,772\n",
      "Non-trainable params: 0\n",
      "_________________________________________________________________\n",
      "###### H4_Emergency investment in healthcare #####\n",
      "Changes in loss: 0.00048228632658720016\n",
      "Changes in Validation loss: 0.021717946976423264\n",
      "##### Reshape and MinMaxScale input #####\n",
      "(541, 14, 25) (541, 7, 1) (61, 14, 25) (61, 7, 1)\n",
      "Model: \"sequential_14\"\n",
      "_________________________________________________________________\n",
      "Layer (type)                 Output Shape              Param #   \n",
      "=================================================================\n",
      "conv1d_22 (Conv1D)           (None, 12, 32)            2432      \n",
      "_________________________________________________________________\n",
      "conv1d_23 (Conv1D)           (None, 10, 64)            6208      \n",
      "_________________________________________________________________\n",
      "max_pooling1d_11 (MaxPooling (None, 5, 64)             0         \n",
      "_________________________________________________________________\n",
      "lstm_34 (LSTM)               (None, 5, 28)             10416     \n",
      "_________________________________________________________________\n",
      "lstm_35 (LSTM)               (None, 14)                2408      \n",
      "_________________________________________________________________\n",
      "dense_34 (Dense)             (None, 14)                210       \n",
      "_________________________________________________________________\n",
      "dense_35 (Dense)             (None, 7)                 98        \n",
      "_________________________________________________________________\n",
      "reshape_17 (Reshape)         (None, 7, 1)              0         \n",
      "=================================================================\n",
      "Total params: 21,772\n",
      "Trainable params: 21,772\n",
      "Non-trainable params: 0\n",
      "_________________________________________________________________\n",
      "###### H3_Contact tracing #####\n",
      "Changes in loss: 0.00014280248433351517\n",
      "Changes in Validation loss: 2.447042942047119\n",
      "##### Reshape and MinMaxScale input #####\n",
      "(541, 14, 25) (541, 7, 1) (61, 14, 25) (61, 7, 1)\n",
      "Model: \"sequential_15\"\n",
      "_________________________________________________________________\n",
      "Layer (type)                 Output Shape              Param #   \n",
      "=================================================================\n",
      "conv1d_24 (Conv1D)           (None, 12, 32)            2432      \n",
      "_________________________________________________________________\n",
      "conv1d_25 (Conv1D)           (None, 10, 64)            6208      \n",
      "_________________________________________________________________\n",
      "max_pooling1d_12 (MaxPooling (None, 5, 64)             0         \n",
      "_________________________________________________________________\n",
      "lstm_36 (LSTM)               (None, 5, 28)             10416     \n",
      "_________________________________________________________________\n",
      "lstm_37 (LSTM)               (None, 14)                2408      \n",
      "_________________________________________________________________\n",
      "dense_36 (Dense)             (None, 14)                210       \n",
      "_________________________________________________________________\n",
      "dense_37 (Dense)             (None, 7)                 98        \n",
      "_________________________________________________________________\n",
      "reshape_18 (Reshape)         (None, 7, 1)              0         \n",
      "=================================================================\n",
      "Total params: 21,772\n",
      "Trainable params: 21,772\n",
      "Non-trainable params: 0\n",
      "_________________________________________________________________\n",
      "###### H2_Testing policy #####\n",
      "Changes in loss: 3.834068775177002e-05\n",
      "Changes in Validation loss: 0.026486430317163467\n",
      "##### Reshape and MinMaxScale input #####\n",
      "(541, 14, 25) (541, 7, 1) (61, 14, 25) (61, 7, 1)\n",
      "Model: \"sequential_16\"\n",
      "_________________________________________________________________\n",
      "Layer (type)                 Output Shape              Param #   \n",
      "=================================================================\n",
      "conv1d_26 (Conv1D)           (None, 12, 32)            2432      \n",
      "_________________________________________________________________\n",
      "conv1d_27 (Conv1D)           (None, 10, 64)            6208      \n",
      "_________________________________________________________________\n",
      "max_pooling1d_13 (MaxPooling (None, 5, 64)             0         \n",
      "_________________________________________________________________\n",
      "lstm_38 (LSTM)               (None, 5, 28)             10416     \n",
      "_________________________________________________________________\n",
      "lstm_39 (LSTM)               (None, 14)                2408      \n",
      "_________________________________________________________________\n",
      "dense_38 (Dense)             (None, 14)                210       \n",
      "_________________________________________________________________\n",
      "dense_39 (Dense)             (None, 7)                 98        \n",
      "_________________________________________________________________\n",
      "reshape_19 (Reshape)         (None, 7, 1)              0         \n",
      "=================================================================\n",
      "Total params: 21,772\n",
      "Trainable params: 21,772\n",
      "Non-trainable params: 0\n",
      "_________________________________________________________________\n",
      "###### H1_Public information campaigns #####\n",
      "Changes in loss: 0.034598078578710556\n",
      "Changes in Validation loss: 0.1991838663816452\n",
      "##### Reshape and MinMaxScale input #####\n",
      "(541, 14, 25) (541, 7, 1) (61, 14, 25) (61, 7, 1)\n",
      "Model: \"sequential_17\"\n",
      "_________________________________________________________________\n",
      "Layer (type)                 Output Shape              Param #   \n",
      "=================================================================\n",
      "conv1d_28 (Conv1D)           (None, 12, 32)            2432      \n",
      "_________________________________________________________________\n",
      "conv1d_29 (Conv1D)           (None, 10, 64)            6208      \n",
      "_________________________________________________________________\n",
      "max_pooling1d_14 (MaxPooling (None, 5, 64)             0         \n",
      "_________________________________________________________________\n",
      "lstm_40 (LSTM)               (None, 5, 28)             10416     \n",
      "_________________________________________________________________\n",
      "lstm_41 (LSTM)               (None, 14)                2408      \n",
      "_________________________________________________________________\n",
      "dense_40 (Dense)             (None, 14)                210       \n",
      "_________________________________________________________________\n",
      "dense_41 (Dense)             (None, 7)                 98        \n",
      "_________________________________________________________________\n",
      "reshape_20 (Reshape)         (None, 7, 1)              0         \n",
      "=================================================================\n",
      "Total params: 21,772\n",
      "Trainable params: 21,772\n",
      "Non-trainable params: 0\n",
      "_________________________________________________________________\n",
      "###### E4_International support #####\n",
      "Changes in loss: 0.00025963038206100464\n",
      "Changes in Validation loss: 0.049227241426706314\n",
      "##### Reshape and MinMaxScale input #####\n",
      "(541, 14, 25) (541, 7, 1) (61, 14, 25) (61, 7, 1)\n",
      "Model: \"sequential_18\"\n",
      "_________________________________________________________________\n",
      "Layer (type)                 Output Shape              Param #   \n",
      "=================================================================\n",
      "conv1d_30 (Conv1D)           (None, 12, 32)            2432      \n",
      "_________________________________________________________________\n",
      "conv1d_31 (Conv1D)           (None, 10, 64)            6208      \n",
      "_________________________________________________________________\n",
      "max_pooling1d_15 (MaxPooling (None, 5, 64)             0         \n",
      "_________________________________________________________________\n",
      "lstm_42 (LSTM)               (None, 5, 28)             10416     \n",
      "_________________________________________________________________\n",
      "lstm_43 (LSTM)               (None, 14)                2408      \n",
      "_________________________________________________________________\n",
      "dense_42 (Dense)             (None, 14)                210       \n",
      "_________________________________________________________________\n",
      "dense_43 (Dense)             (None, 7)                 98        \n",
      "_________________________________________________________________\n",
      "reshape_21 (Reshape)         (None, 7, 1)              0         \n",
      "=================================================================\n",
      "Total params: 21,772\n",
      "Trainable params: 21,772\n",
      "Non-trainable params: 0\n",
      "_________________________________________________________________\n",
      "###### E3_Fiscal measures #####\n",
      "Changes in loss: 0.0004739779978990555\n",
      "Changes in Validation loss: 0.0075987353920936584\n",
      "##### Reshape and MinMaxScale input #####\n",
      "(541, 14, 25) (541, 7, 1) (61, 14, 25) (61, 7, 1)\n",
      "Model: \"sequential_19\"\n",
      "_________________________________________________________________\n",
      "Layer (type)                 Output Shape              Param #   \n",
      "=================================================================\n",
      "conv1d_32 (Conv1D)           (None, 12, 32)            2432      \n",
      "_________________________________________________________________\n",
      "conv1d_33 (Conv1D)           (None, 10, 64)            6208      \n",
      "_________________________________________________________________\n",
      "max_pooling1d_16 (MaxPooling (None, 5, 64)             0         \n",
      "_________________________________________________________________\n",
      "lstm_44 (LSTM)               (None, 5, 28)             10416     \n",
      "_________________________________________________________________\n",
      "lstm_45 (LSTM)               (None, 14)                2408      \n",
      "_________________________________________________________________\n",
      "dense_44 (Dense)             (None, 14)                210       \n",
      "_________________________________________________________________\n",
      "dense_45 (Dense)             (None, 7)                 98        \n",
      "_________________________________________________________________\n",
      "reshape_22 (Reshape)         (None, 7, 1)              0         \n",
      "=================================================================\n",
      "Total params: 21,772\n",
      "Trainable params: 21,772\n",
      "Non-trainable params: 0\n",
      "_________________________________________________________________\n",
      "###### E2_Debt/contract relief #####\n",
      "Changes in loss: 0.00024886662140488625\n",
      "Changes in Validation loss: 0.023871716111898422\n",
      "##### Reshape and MinMaxScale input #####\n",
      "(541, 14, 25) (541, 7, 1) (61, 14, 25) (61, 7, 1)\n",
      "Model: \"sequential_20\"\n",
      "_________________________________________________________________\n",
      "Layer (type)                 Output Shape              Param #   \n",
      "=================================================================\n",
      "conv1d_34 (Conv1D)           (None, 12, 32)            2432      \n",
      "_________________________________________________________________\n",
      "conv1d_35 (Conv1D)           (None, 10, 64)            6208      \n",
      "_________________________________________________________________\n",
      "max_pooling1d_17 (MaxPooling (None, 5, 64)             0         \n",
      "_________________________________________________________________\n",
      "lstm_46 (LSTM)               (None, 5, 28)             10416     \n",
      "_________________________________________________________________\n",
      "lstm_47 (LSTM)               (None, 14)                2408      \n",
      "_________________________________________________________________\n",
      "dense_46 (Dense)             (None, 14)                210       \n",
      "_________________________________________________________________\n",
      "dense_47 (Dense)             (None, 7)                 98        \n",
      "_________________________________________________________________\n",
      "reshape_23 (Reshape)         (None, 7, 1)              0         \n",
      "=================================================================\n",
      "Total params: 21,772\n",
      "Trainable params: 21,772\n",
      "Non-trainable params: 0\n",
      "_________________________________________________________________\n",
      "###### E1_Income support #####\n",
      "Changes in loss: 0.00036690058186650276\n",
      "Changes in Validation loss: 0.03926769271492958\n",
      "##### Reshape and MinMaxScale input #####\n",
      "(541, 14, 25) (541, 7, 1) (61, 14, 25) (61, 7, 1)\n",
      "Model: \"sequential_21\"\n",
      "_________________________________________________________________\n",
      "Layer (type)                 Output Shape              Param #   \n",
      "=================================================================\n",
      "conv1d_36 (Conv1D)           (None, 12, 32)            2432      \n",
      "_________________________________________________________________\n",
      "conv1d_37 (Conv1D)           (None, 10, 64)            6208      \n",
      "_________________________________________________________________\n",
      "max_pooling1d_18 (MaxPooling (None, 5, 64)             0         \n",
      "_________________________________________________________________\n",
      "lstm_48 (LSTM)               (None, 5, 28)             10416     \n",
      "_________________________________________________________________\n",
      "lstm_49 (LSTM)               (None, 14)                2408      \n",
      "_________________________________________________________________\n",
      "dense_48 (Dense)             (None, 14)                210       \n",
      "_________________________________________________________________\n",
      "dense_49 (Dense)             (None, 7)                 98        \n",
      "_________________________________________________________________\n",
      "reshape_24 (Reshape)         (None, 7, 1)              0         \n",
      "=================================================================\n",
      "Total params: 21,772\n",
      "Trainable params: 21,772\n",
      "Non-trainable params: 0\n",
      "_________________________________________________________________\n",
      "###### C8_International travel controls #####\n",
      "Changes in loss: 0.00018075527623295784\n",
      "Changes in Validation loss: 0.011197615414857864\n",
      "##### Reshape and MinMaxScale input #####\n",
      "(541, 14, 25) (541, 7, 1) (61, 14, 25) (61, 7, 1)\n",
      "Model: \"sequential_22\"\n",
      "_________________________________________________________________\n",
      "Layer (type)                 Output Shape              Param #   \n",
      "=================================================================\n",
      "conv1d_38 (Conv1D)           (None, 12, 32)            2432      \n",
      "_________________________________________________________________\n",
      "conv1d_39 (Conv1D)           (None, 10, 64)            6208      \n",
      "_________________________________________________________________\n",
      "max_pooling1d_19 (MaxPooling (None, 5, 64)             0         \n",
      "_________________________________________________________________\n",
      "lstm_50 (LSTM)               (None, 5, 28)             10416     \n",
      "_________________________________________________________________\n",
      "lstm_51 (LSTM)               (None, 14)                2408      \n",
      "_________________________________________________________________\n",
      "dense_50 (Dense)             (None, 14)                210       \n",
      "_________________________________________________________________\n",
      "dense_51 (Dense)             (None, 7)                 98        \n",
      "_________________________________________________________________\n",
      "reshape_25 (Reshape)         (None, 7, 1)              0         \n",
      "=================================================================\n",
      "Total params: 21,772\n",
      "Trainable params: 21,772\n",
      "Non-trainable params: 0\n",
      "_________________________________________________________________\n",
      "###### C7_Restrictions on internal movement #####\n",
      "Changes in loss: 0.00033958908170461655\n",
      "Changes in Validation loss: 0.042342644184827805\n",
      "##### Reshape and MinMaxScale input #####\n",
      "(541, 14, 25) (541, 7, 1) (61, 14, 25) (61, 7, 1)\n",
      "Model: \"sequential_23\"\n",
      "_________________________________________________________________\n",
      "Layer (type)                 Output Shape              Param #   \n",
      "=================================================================\n",
      "conv1d_40 (Conv1D)           (None, 12, 32)            2432      \n",
      "_________________________________________________________________\n",
      "conv1d_41 (Conv1D)           (None, 10, 64)            6208      \n",
      "_________________________________________________________________\n",
      "max_pooling1d_20 (MaxPooling (None, 5, 64)             0         \n",
      "_________________________________________________________________\n",
      "lstm_52 (LSTM)               (None, 5, 28)             10416     \n",
      "_________________________________________________________________\n",
      "lstm_53 (LSTM)               (None, 14)                2408      \n",
      "_________________________________________________________________\n",
      "dense_52 (Dense)             (None, 14)                210       \n",
      "_________________________________________________________________\n",
      "dense_53 (Dense)             (None, 7)                 98        \n",
      "_________________________________________________________________\n",
      "reshape_26 (Reshape)         (None, 7, 1)              0         \n",
      "=================================================================\n",
      "Total params: 21,772\n",
      "Trainable params: 21,772\n",
      "Non-trainable params: 0\n",
      "_________________________________________________________________\n",
      "###### C6_Stay at home requirements #####\n",
      "Changes in loss: 0.0004417756572365761\n",
      "Changes in Validation loss: 0.009692545980215073\n",
      "##### Reshape and MinMaxScale input #####\n",
      "(541, 14, 25) (541, 7, 1) (61, 14, 25) (61, 7, 1)\n",
      "Model: \"sequential_24\"\n",
      "_________________________________________________________________\n",
      "Layer (type)                 Output Shape              Param #   \n",
      "=================================================================\n",
      "conv1d_42 (Conv1D)           (None, 12, 32)            2432      \n",
      "_________________________________________________________________\n",
      "conv1d_43 (Conv1D)           (None, 10, 64)            6208      \n",
      "_________________________________________________________________\n",
      "max_pooling1d_21 (MaxPooling (None, 5, 64)             0         \n",
      "_________________________________________________________________\n",
      "lstm_54 (LSTM)               (None, 5, 28)             10416     \n",
      "_________________________________________________________________\n",
      "lstm_55 (LSTM)               (None, 14)                2408      \n",
      "_________________________________________________________________\n",
      "dense_54 (Dense)             (None, 14)                210       \n",
      "_________________________________________________________________\n",
      "dense_55 (Dense)             (None, 7)                 98        \n",
      "_________________________________________________________________\n",
      "reshape_27 (Reshape)         (None, 7, 1)              0         \n",
      "=================================================================\n",
      "Total params: 21,772\n",
      "Trainable params: 21,772\n",
      "Non-trainable params: 0\n",
      "_________________________________________________________________\n",
      "###### C5_Close public transport #####\n",
      "Changes in loss: 0.00014409096911549568\n",
      "Changes in Validation loss: 0.02678009495139122\n",
      "##### Reshape and MinMaxScale input #####\n",
      "(541, 14, 25) (541, 7, 1) (61, 14, 25) (61, 7, 1)\n",
      "Model: \"sequential_25\"\n",
      "_________________________________________________________________\n",
      "Layer (type)                 Output Shape              Param #   \n",
      "=================================================================\n",
      "conv1d_44 (Conv1D)           (None, 12, 32)            2432      \n",
      "_________________________________________________________________\n",
      "conv1d_45 (Conv1D)           (None, 10, 64)            6208      \n",
      "_________________________________________________________________\n",
      "max_pooling1d_22 (MaxPooling (None, 5, 64)             0         \n",
      "_________________________________________________________________\n",
      "lstm_56 (LSTM)               (None, 5, 28)             10416     \n",
      "_________________________________________________________________\n",
      "lstm_57 (LSTM)               (None, 14)                2408      \n",
      "_________________________________________________________________\n",
      "dense_56 (Dense)             (None, 14)                210       \n",
      "_________________________________________________________________\n",
      "dense_57 (Dense)             (None, 7)                 98        \n",
      "_________________________________________________________________\n",
      "reshape_28 (Reshape)         (None, 7, 1)              0         \n",
      "=================================================================\n",
      "Total params: 21,772\n",
      "Trainable params: 21,772\n",
      "Non-trainable params: 0\n",
      "_________________________________________________________________\n",
      "###### C4_Restrictions on gatherings #####\n",
      "Changes in loss: 0.034598078578710556\n",
      "Changes in Validation loss: 0.1991838663816452\n",
      "##### Reshape and MinMaxScale input #####\n",
      "(541, 14, 25) (541, 7, 1) (61, 14, 25) (61, 7, 1)\n",
      "Model: \"sequential_26\"\n",
      "_________________________________________________________________\n",
      "Layer (type)                 Output Shape              Param #   \n",
      "=================================================================\n",
      "conv1d_46 (Conv1D)           (None, 12, 32)            2432      \n",
      "_________________________________________________________________\n",
      "conv1d_47 (Conv1D)           (None, 10, 64)            6208      \n",
      "_________________________________________________________________\n",
      "max_pooling1d_23 (MaxPooling (None, 5, 64)             0         \n",
      "_________________________________________________________________\n",
      "lstm_58 (LSTM)               (None, 5, 28)             10416     \n",
      "_________________________________________________________________\n",
      "lstm_59 (LSTM)               (None, 14)                2408      \n",
      "_________________________________________________________________\n",
      "dense_58 (Dense)             (None, 14)                210       \n",
      "_________________________________________________________________\n",
      "dense_59 (Dense)             (None, 7)                 98        \n",
      "_________________________________________________________________\n",
      "reshape_29 (Reshape)         (None, 7, 1)              0         \n",
      "=================================================================\n",
      "Total params: 21,772\n",
      "Trainable params: 21,772\n",
      "Non-trainable params: 0\n",
      "_________________________________________________________________\n",
      "###### C3_Cancel public events #####\n",
      "Changes in loss: 0.00020928215235471725\n",
      "Changes in Validation loss: 0.6051352620124817\n",
      "##### Reshape and MinMaxScale input #####\n",
      "(541, 14, 25) (541, 7, 1) (61, 14, 25) (61, 7, 1)\n",
      "Model: \"sequential_27\"\n",
      "_________________________________________________________________\n",
      "Layer (type)                 Output Shape              Param #   \n",
      "=================================================================\n",
      "conv1d_48 (Conv1D)           (None, 12, 32)            2432      \n",
      "_________________________________________________________________\n",
      "conv1d_49 (Conv1D)           (None, 10, 64)            6208      \n",
      "_________________________________________________________________\n",
      "max_pooling1d_24 (MaxPooling (None, 5, 64)             0         \n",
      "_________________________________________________________________\n",
      "lstm_60 (LSTM)               (None, 5, 28)             10416     \n",
      "_________________________________________________________________\n",
      "lstm_61 (LSTM)               (None, 14)                2408      \n",
      "_________________________________________________________________\n",
      "dense_60 (Dense)             (None, 14)                210       \n",
      "_________________________________________________________________\n",
      "dense_61 (Dense)             (None, 7)                 98        \n",
      "_________________________________________________________________\n",
      "reshape_30 (Reshape)         (None, 7, 1)              0         \n",
      "=================================================================\n",
      "Total params: 21,772\n",
      "Trainable params: 21,772\n",
      "Non-trainable params: 0\n",
      "_________________________________________________________________\n",
      "###### C2_Workplace closing #####\n",
      "Changes in loss: 0.00039291149005293846\n",
      "Changes in Validation loss: 0.01941358670592308\n",
      "##### Reshape and MinMaxScale input #####\n",
      "(541, 14, 25) (541, 7, 1) (61, 14, 25) (61, 7, 1)\n",
      "Model: \"sequential_28\"\n",
      "_________________________________________________________________\n",
      "Layer (type)                 Output Shape              Param #   \n",
      "=================================================================\n",
      "conv1d_50 (Conv1D)           (None, 12, 32)            2432      \n",
      "_________________________________________________________________\n",
      "conv1d_51 (Conv1D)           (None, 10, 64)            6208      \n",
      "_________________________________________________________________\n",
      "max_pooling1d_25 (MaxPooling (None, 5, 64)             0         \n",
      "_________________________________________________________________\n",
      "lstm_62 (LSTM)               (None, 5, 28)             10416     \n",
      "_________________________________________________________________\n",
      "lstm_63 (LSTM)               (None, 14)                2408      \n",
      "_________________________________________________________________\n",
      "dense_62 (Dense)             (None, 14)                210       \n",
      "_________________________________________________________________\n",
      "dense_63 (Dense)             (None, 7)                 98        \n",
      "_________________________________________________________________\n",
      "reshape_31 (Reshape)         (None, 7, 1)              0         \n",
      "=================================================================\n",
      "Total params: 21,772\n",
      "Trainable params: 21,772\n",
      "Non-trainable params: 0\n",
      "_________________________________________________________________\n",
      "###### C1_School closing #####\n",
      "Changes in loss: -0.00028647156432271004\n",
      "Changes in Validation loss: 0.00837094709277153\n"
…
    "Changes = pd.DataFrame.from_dict(result, orient='index', columns=['Loss', 'Validation Loss'])\n",
    "Changes.to_csv(os.path.join(logdir, \"{}_significance.csv\".format(country)))"
   ]
  },
  {
   "cell_type": "code",
   "execution_count": 14,
   "metadata": {},
   "outputs": [
    {
     "name": "stdout",
     "output_type": "stream",
     "text": [
      "Model: \"sequential_3\"\n",
      "_________________________________________________________________\n",
      "Layer (type)                 Output Shape              Param #   \n",
      "=================================================================\n",
      "conv1d_2 (Conv1D)            (None, 12, 32)            2528      \n",
      "_________________________________________________________________\n",
      "conv1d_3 (Conv1D)            (None, 10, 64)            6208      \n",
      "_________________________________________________________________\n",
      "max_pooling1d_1 (MaxPooling1 (None, 5, 64)             0         \n",
      "_________________________________________________________________\n",
      "lstm_10 (LSTM)               (None, 5, 28)             10416     \n",
      "_________________________________________________________________\n",
      "lstm_11 (LSTM)               (None, 14)                2408      \n",
      "_________________________________________________________________\n",
      "dense_10 (Dense)             (None, 14)                210       \n",
      "_________________________________________________________________\n",
      "dense_11 (Dense)             (None, 7)                 98        \n",
      "_________________________________________________________________\n",
      "reshape_5 (Reshape)          (None, 7, 1)              0         \n",
      "=================================================================\n",
      "Total params: 21,868\n",
      "Trainable params: 21,868\n",
      "Non-trainable params: 0\n",
      "_________________________________________________________________\n",
      "##### Reshape and MinMaxScale input #####\n",
      "(541, 14, 26) (541, 7, 1) (61, 14, 26) (61, 7, 1)\n",
      "['C1_Sch
…
